model100.pth (torch, 578370 bytes, 12 tensors)

conv1.weight f4 [40, 1, 200]
000000 c1 28 0c 3b ef 57 8b 3d c0 5d 86 bd 93 8f 7c bd
       0.0021386596 0.068038814 -0.0656085 -0.06166036
000010 13 04 d0 3a 68 12 dc 3d ff 62 a7 3d b7 fb 8b bd
       0.0015870355 0.10745698 0.08173179 -0.0683512
000020 ec 9e d1 bd 79 0e b3 3c 1e da cf bb 71 d0 a1 bc
       -0.1023539 0.021857487 -0.0063431403 -0.019752713
000030 15 de a7 3d 21 22 42 3d 3c 5f 81 3c 0a ef 42 bd
       0.08196656 0.04739583 0.015792482 -0.047591247
000040 fa 3b ad 3b 1f 8b 15 bd 57 4a 23 3d 4e a5 05 bd
       0.005286691 -0.03650963 0.039865818 -0.03262835
000050 20 31 3f 3d 18 99 b5 3c 97 ea f5 3c a4 b5 8d 3c
       0.04667771 0.022167727 0.030019088 0.017298527
000060 bc 36 f9 bc 18 e2 b5 bc 98 fc 76 bb 0a a4 16 3c
       -0.030421607 -0.022202536 -0.0037687179 0.009194383
000070 5e 06 9c 3c 55 8c 65 bd 4d dd 9e bc 52 b7 34 3d
       0.019046005 -0.056042034 -0.019392634 0.04412014
000080 ae e5 f4 3c 54 c5 33 bb 9d 23 6f bd 4f 98 bc 3b
       0.029894676 -0.002743085 -0.058383573 0.0057554613
000090 ca 2f 79 bc a1 b9 c3 bc 32 ca ac bb 17 be 21 bc
       -0.015209148 -0.023892226 -0.005273127 -0.009871981
0000a0 4a dc 8f 3d 81 1f aa 3c fa 83 7a bc 75 5f 79 bd
       0.07024439 0.020766975 -0.015290255 -0.06088205
0000b0 54 c0 42 bd 96 c0 76 3d ca 75 94 3d 10 54 19 bd
       -0.0475467 0.060242258 0.07249029 -0.037433684
0000c0 f1 69 66 bd 88 2c 06 3d 2b 8f 0e 3d 9a bd 4e ba
       -0.056253377 0.032757312 0.034804504 -0.0007886529
0000d0 2d 85 1f 3d 75 56 8b bd ce 9b 06 3d 64 aa 8c 3b
       0.038945366 -0.068036 0.03286343 0.004292773
0000e0 22 b7 22 3d ce a2 d5 bc a2 99 c1 3c c7 b7 38 3d
       0.03972543 -0.026078608 0.023632828 0.04509714
0000f0 42 e7 ef 3c 5d cd 8c bd 71 6c 38 bd ad ce a3 3d
       0.029285077 -0.068751074 -0.045025293 0.07998405
000100 7a 22 28 3d f8 fb 93 bc 49 fc f5 bc 02 e2 aa bc
       0.041048504 -0.018064484 -0.030027525 -0.020859722
000110 9a e5 28 3c 1f fb c0 bb fc c3 a7 bc 7b a8 83 3d
       0.0103086475 -0.005889311 -0.020479195 0.064286195
000120 5b 11 ae bc a5 45 97 bd c5 2f 0a bc fc b9 b7 3d
       -0.02124851 -0.073863305 -0.008434241 0.089710206
000130 3e 0e 20 3d 7d 97 e8 3b da a2 2b bd 45 f6 16 bd
       0.039076082 0.007098137 -0.041903354 -0.036855955
000140 63 c5 9f 3c de fb b4 3c d3 62 07 3d c3 59 6f 3d
       0.019503301 0.022092756 0.03305323 0.058435213
000150 d6 8c 27 3b 9f 78 63 bc 95 9f 31 3d 58 e5 9e bd
       0.0025566122 -0.013883739 0.04336508 -0.077585876
000160 84 61 1a bd 1f 52 3c 3d dc f7 3f 3d 6a 06 d3 3c
       -0.037690654 0.045976754 0.046867236 0.025759894
000170 5c 34 1f bd a8 bd 8e 3d 06 f7 03 3d 20 a1 e9 bc
       -0.038868293 0.06969768 0.032218 -0.028519213
000180 b3 88 e7 3c 0a 31 80 bd 8a 57 73 bd 36 9a a6 3d
       0.028263425 -0.062593535 -0.059409656 0.08134882
000190 51 0e b2 3d 49 5a b5 3d 03 10 29 bd 76 97 07 bd
       0.08694137 0.08855111 -0.041275036 -0.03310343
0001a0 e8 27 8e bd e3 3f 56 3d c5 2e 2c bd 26 4c 0a 3d
       -0.06941205 0.05230702 -0.04203679 0.033764027
0001b0 30 2f 37 3d 57 07 7a bb 25 05 54 3d 44 ec 41 3b
       0.044722736 -0.0038151348 0.05176272 0.0029590288
0001c0 64 c2 00 bd 87 e0 67 3c 10 d3 82 bd ea 51 97 3d
       -0.031435385 0.014152653 -0.06387913 0.07388671
0001d0 b4 53 d2 3c 4d c9 c0 3d b2 bf 69 bd f8 13 4f 3d
       0.025674678 0.09413395 -0.05706758 0.050556153
0001e0 c4 05 b0 bc bd 2c ae 3c f5 ab 97 bc 2f fe 65 3c
       -0.021487124 0.021261567 -0.018514613 0.014037653
0001f0 05 3e be 3d f9 15 fe bc 6a 51 e4 3b 7a 16 d0 3b
       0.09289173 -0.031016337 0.006967713 0.0063503357
000200 42 38 b2 bd d2 9b 7f bd 8a c3 8c 3d d6 a7 9f 3d
       -0.087021366 -0.06240446 0.068732336 0.07795684
000210 4e d6 c9 3c 7e 59 08 bd 36 c3 69 bd 35 08 57 bb
       0.024638321 -0.03328847 -0.057070933 -0.0032811288
000220 e6 83 19 bd 16 7e 8a bc 22 c3 f1 3c 21 33 07 3d
       -0.037479304 -0.016905826 0.029511992 0.033007745
000230 06 e7 8b 3d 38 99 5a 3c 37 15 81 bd ad 5d af bd
       0.068311736 0.013342194 -0.063028745 -0.08562789
000240 fd 3c 93 bc 1f d9 04 3b 0b ed b6 3c 12 d9 56 3d
       -0.017973417 0.0020271016 0.022329828 0.052453108
000250 eb 2b 10 bd d2 4c d9 3c 70 90 0b bd 2a df 61 bd
       -0.035198133 0.026525889 -0.034073293 -0.055144466
000260 d9 ab 29 bd b4 0f 42 bd 74 09 3b 3d 67 83 b5 3d
       -0.041423652 -0.047378257 0.045663312 0.08862954
000270 db 6e c3 3c d6 91 ac bd ea 88 f6 bc 2a 0d 58 3d
       0.023856571 -0.084262535 -0.030094583 0.05274693
000280 0d 44 4a bd af 2d 2e bd c9 1b 2c bb 4f b0 c8 3d
       -0.049381305 -0.042524036 -0.0026261678 0.09799253
000290 c3 fc 56 3d db 94 4f bc c7 ed ab bd 77 e4 35 bd
       0.052487146 -0.012669767 -0.08394962 -0.044407334
0002a0 8a 8e 4b bd 48 b3 89 3d fd ef 44 3c 90 ad c1 3b
       -0.049696483 0.06723648 0.012020108 0.005910583
0002b0 15 b4 4c 3d 00 2f 84 3c f2 ee 74 bd cf 14 4a bd
       0.049976427 0.016135693 -0.05979819 -0.04933625
0002c0 ac 19 5c 39 fe f4 1f 3d 57 71 1e 3c 56 86 3a 3d
       0.00020990398 0.039052002 0.009670577 0.04553827
0002d0 1d 84 ab 3c f3 7e bd 3c fa e3 4b bd e6 c8 ad 3b
       0.02093702 0.023131823 -0.049777962 0.00530349
0002e0 16 93 84 3b a9 7e 9c 3c 86 b0 9f 3d 32 cb 6f bc
       0.0040458543 0.019103365 0.07797341 -0.014635848
0002f0 6f 71 a8 bd ac a1 f8 bb 03 44 94 3d 53 cc b7 3d
       -0.08224761 -0.007587632 0.07239535 0.089745186
000300 64 01 52 bc ca 0a a6 3c a2 ea 54 bd ef d5 83 3b
       -0.012817714 0.020268817 -0.051981576 0.0040233056
000310 ef 9a d4 3a a8 cb b2 3d 36 2a f9 bc f7 54 57 3d
       0.001622049 0.087302506 -0.030415636 0.052571263
000320 0c 5e d6 ba 6e ab e4 bc dc 59 0b bd 3c 2f ed bc
       -0.0016354932 -0.027913775 -0.034021243 -0.028953187
000330 29 29 c7 bc d1 42 99 3c f2 da 92 3c 7a 25 08 3c
       -0.024311619 0.018708618 0.017926667 0.008309716
000340 94 30 9c 3c 0c 28 79 bc 52 5b 5e bd 68 d0 8c ba
       0.019066133 -0.015207302 -0.05428631 -0.0010743262
000350 18 6f d0 3b fb 1d 5e 3d d8 fd 40 bd 35 d1 68 3d
       0.0063608997 0.05422781 -0.047117084 0.05684014
000360 3b e0 3a 3c 69 50 95 3c fd 1f c1 3c 65 d7 43 b8
       0.011406 0.01822682 0.023574824 -4.6692225e-05
000370 1d 08 74 bc a7 f4 eb bc 54 35 97 3c ee 1e 4c 3d
       -0.0148945125 -0.028803183 0.018458046 0.049834184
000380 da d0 fd 3b 98 ed 8d bb 38 18 08 3d 54 42 32 bd
       0.0077458443 -0.004331302 0.03322622 -0.043520287
000390 c2 14 b8 bb 49 7b 71 3d 83 57 dc bc 33 83 71 bd
       -0.005617709 0.058955465 -0.026897198 -0.058963012
0003a0 83 56 3a 3d 71 78 1e bc 16 26 70 bc 1e c9 8c 3d
       0.04549266 -0.00967227 -0.014657518 0.068742976
0003b0 b6 32 a8 bc c2 0e 30 3c 3b db c7 3b 0f 6c 3d bd
       -0.020531993 0.010745706 0.0060991324 -0.04624563
0003c0 0e 8d 7c 3d 39 38 a1 3b dc 5f 59 bd bd 5f 38 bd
       0.061657958 0.0049200323 -0.053069934 -0.04501318
0003d0 1e 56 92 3d 75 6b 57 3d b9 67 22 bd e1 06 77 bd
       0.07145332 0.052592713 -0.0396497 -0.060309295
0003e0 42 16 87 bc 22 ad 7c 3d 7b ed 78 bb 2f 92 64 3d
       -0.016490106 0.06168855 -0.0037983346 0.055803474
0003f0 3d 77 4b bd f3 51 a4 3c 40 78 95 bd 01 0a 47 3d
       -0.04967426 0.020058608 -0.072983265 0.048593525

conv1.bias f4 [40]
000000 30 d0 a7 39 24 4d 11 bd 49 fa 06 bd 86 04 5d 3d
       0.00032007834 -0.035473958 -0.032953534 0.053959392
000010 1e 6b 1e bd f8 de b0 b9 e7 90 84 3d b1 ab c7 3b
       -0.038676374 -0.0003373546 0.064729504 0.0060934653
000020 2b 2d 0e 3d 39 0f d3 bc 4a 2c f4 3c c9 19 d1 bc
       0.034711044 -0.025764095 0.029806275 -0.02552499
000030 63 34 1b 3d 45 05 94 3c 4d 06 6c 3d 46 65 62 3c
       0.037891757 0.018068919 0.057623196 0.013818091
000040 96 c0 20 3c f1 46 1e bd fa 57 5e 3b 58 64 2a bc
       0.009811541 -0.038641874 0.003392695 -0.0103999
000050 2d ac 6f bd c0 26 8d 3a 46 f7 74 3d b6 c6 23 3d
       -0.05851381 0.0010768995 0.05980613 0.039984427
000060 b9 e7 77 3d ab d4 40 bb 72 17 02 3d 58 db 5a 3d
       0.060523722 -0.0029423635 0.03176064 0.05343184
000070 98 ff d3 bb 9e db d0 bc 06 f5 8a bc 6b 47 9e bb
       -0.006469678 -0.025495347 -0.01696254 -0.004830291
000080 60 74 77 bd bd d4 33 bd f0 c8 05 3c c2 05 59 3b
       -0.06041372 -0.043904055 0.008165583 0.0033115004
000090 a0 f0 b3 bb ff d8 84 3d fe 43 1c bc cc 9e b4 bc
       -0.005491331 0.06486701 -0.009537695 -0.022048377

conv2.weight f4 [25, 40, 10]
000000 d4 ba 30 3d 32 12 35 3b 2d f0 44 3d 5d f3 49 bc
       0.043146923 0.0027629253 0.048080612 -0.012326089
000010 15 e0 4e bc d4 96 7f bc 52 c0 d7 bc c2 e1 32 3b
       -0.0126266675 -0.015599925 -0.026336823 0.0027295207
000020 a6 8d 21 3d a9 85 21 3d bd aa fc bc 38 e7 b6 bc
       0.039441727 0.03943411 -0.030843133 -0.02232705
000030 7b 43 d3 bb 9c 50 73 3d 02 89 10 3d aa fe 23 3d
       -0.0064472533 0.059403047 0.03528691 0.04003779
000040 bf c7 d6 bc 31 b5 f9 bc 20 b8 8d 3b b8 57 e8 3c
       -0.026218293 -0.030481907 0.004324928 0.02836214
000050 3b 72 0d 3c 51 95 c3 3c 05 25 02 3d 02 0a 1c 3d
       0.008633192 0.02387491 0.031773586 0.03809548
000060 68 26 08 bd 6d c6 cd bc b8 cb e0 bb bf e9 b9 3c
       -0.033239752 -0.02511903 -0.0068602227 0.022694467
000070 2e 9b 72 bb f4 cd 5f bc 82 38 ad 3b e6 b7 c2 3c
       -0.0037018764 -0.013659943 0.0052862773 0.02376933
000080 62 17 8e bc 40 6c e6 3b 22 eb 06 bd 6d 39 a5 3b
       -0.017345134 0.0070319474 -0.032939084 0.005042246
000090 e7 81 23 bd 60 e9 4b bd 4d b4 b0 bc 27 0d 4d 3d
       -0.039918806 -0.04978311 -0.02157035 0.05006137
0000a0 91 0f 8d 3a e0 d7 0f 3d 63 41 de 3c c2 5d eb bc
       0.0010762085 0.035117984 0.027130788 -0.02873123
0000b0 60 ca 49 3c fc 38 25 bc 48 1c c7 3c da 0a fe 3c
       0.012316316 -0.010084387 0.024305478 0.031011034
0000c0 8d a8 07 3d 9b 6b a8 bc 84 32 82 3d af 60 f6 3c
       0.033119727 -0.020559123 0.06357291 0.0300754
0000d0 4c 3c a4 bc 31 bf 92 3c 69 6c 52 3d 8c 3f 93 3b
       -0.020048283 0.017913433 0.05137292 0.0044936594
0000e0 84 42 eb 3c ae 49 93 bc e7 ce 63 3d 57 8e 80 3d
       0.02871824 -0.01797947 0.05561724 0.06277149
0000f0 b4 75 a2 bc d3 05 09 bd 6c b2 aa 3c f0 8c 3d bd
       -0.019831516 -0.03345282 0.020837031 -0.046276987
000100 08 6d 53 bb 96 72 ef bb 45 99 80 3c da 7f 29 bd
       -0.0032261033 -0.007307361 0.015698085 -0.041381694
000110 18 54 71 bb 34 1c 97 bc 55 02 bb bc 5e a1 82 bd
       -0.0036823805 -0.018446065 -0.02282826 -0.063784346
000120 47 1c 5a bd ba 28 c7 3b 3c be 31 bd 76 7a 81 bd
       -0.053249624 0.006077853 -0.043394312 -0.06322186
000130 d2 01 06 bd d1 64 4d bd 34 9c 1c bc c1 ed 78 bd
       -0.03271658 -0.050144974 -0.009558726 -0.060773615
000140 83 66 02 bd 6f 33 e7 ba 10 46 e8 bc a6 a5 0c 3c
       -0.031836044 -0.001763923 -0.02835372 0.008584416
000150 88 55 35 3d b2 40 99 3c 68 4a 1c 3d 72 e6 f0 bb
       0.044271022 0.018707607 0.038156897 -0.00735169
000160 6a 34 b2 bc 77 75 f3 bc ee ac 94 bb 0b 19 98 bc
       -0.021753509 -0.029719098 -0.0045372164 -0.018566629
000170 1f 12 70 3c d9 8c 92 3d 71 50 3d 3d e7 84 e8 bc
       0.014652758 0.07155771 0.046219293 -0.028383685
000180 8b e1 62 bc 99 66 3e 3d 51 18 35 3d bc a2 a2 bc
       -0.013847719 0.046484563 0.044212643 -0.019852988
000190 35 b6 3f 3d 87 f5 3e 3d 5f ff 3a bd a7 4b 40 3d
       0.046804626 0.046620872 -0.045653697 0.046947148
0001a0 ce 02 bb bc 13 b0 e5 bc 15 9e d6 3b 43 28 34 bd
       -0.022828486 -0.02803806 0.0065496066 -0.04398371
0001b0 f1 bd 00 bc d5 73 2e bd e3 1e a7 bc f7 66 95 3c
       -0.007857786 -0.042590935 -0.02040047 0.018237574
0001c0 93 56 a8 bc 48 c1 00 bc a5 49 f8 3b 98 77 01 3d
       -0.020549094 -0.007858582 0.0075771385 0.031608194
0001d0 e5 e4 e5 3c dc ff 60 3d 37 eb e5 3c 82 5a 65 3d
       0.028063247 0.054931507 0.02806626 0.055994518
0001e0 a5 30 47 bc f0 44 fd bc a3 50 ba 3c 71 82 cc 3c
       -0.012157594 -0.030916661 0.022743529 0.024964543
0001f0 e7 4f 00 bd 44 d6 2a bd 52 c5 10 3c 05 86 af bc
       -0.0313262 -0.041708246 0.008836107 -0.02142621
000200 0b fd 42 3d db 25 38 3d f1 50 4d 3c 47 24 ef 3c
       0.0476046 0.044957977 0.012531505 0.029192103
000210 5e 18 b9 3c aa 36 33 3d 67 2c 26 bd 13 db 94 3c
       0.022594627 0.043753304 -0.04056969 0.018170869
000220 02 ba fe 3c eb 09 fa bc 6f c8 fd bc 55 54 b6 3b
       0.031094555 -0.030522307 -0.030979363 0.0055642524
000230 9b 03 43 3d 19 7d 1f 3d 65 12 c4 bc 46 60 1a 3d
       0.04761086 0.03893766 -0.023934552 0.03768947
000240 74 fc 10 bc 97 1e d0 3c 2c e2 2a 3c 8b df dc bb
       -0.008849252 0.025405211 0.0104299 -0.0067405156
000250 5b e7 c6 3c e6 2c 22 bd a2 82 88 bb 5f 44 56 3d
       0.02428024 -0.0395936 -0.0041659633 0.052311298
000260 bf 20 0e bd 01 dc 4f bc b1 9e ef bb 72 90 3e 3d
       -0.034699198 -0.01268673 -0.0073126187 0.046524473
000270 9e 8d c4 bc 79 28 05 bc 0f 67 e4 3c ae d1 cc 3c
       -0.02399331 -0.008127325 0.027881173 0.025002327
000280 82 20 ca 3c 8d 12 ba 3c 4c 30 44 3d 79 79 80 3c
       0.024673704 0.022713924 0.047897622 0.015682923
000290 c4 75 d1 3b 44 23 e2 bc 81 af 57 3d 14 c7 33 37
       0.0063922126 -0.027604707 0.052657608 1.0715583e-05
0002a0 48 36 74 3c a7 e3 f8 bc ba a0 d5 3b 83 b6 9a 3c
       0.01490552 -0.03038199 0.0065194042 0.018885856
0002b0 d0 cc 1c 3d 22 32 01 3b 89 c3 86 bc 33 f1 4e 3d
       0.038281262 0.001971372 -0.01645066 0.050522994
0002c0 d3 35 08 3d e3 1c 2d 3d 0b 11 d5 bc 0c 76 0d bd
       0.033254456 0.042263877 -0.026009103 -0.034536406
0002d0 68 79 b5 bc 40 e8 9d bb 69 8f cc 3c 79 80 5f 3d
       -0.022152618 -0.004818946 0.024970727 0.05456588
0002e0 79 4b f4 3c f0 8e 94 bb 49 51 e0 bc 8a 24 54 3c
       0.029821144 -0.004533641 -0.02738251 0.012948165
0002f0 b7 3f 10 bd d6 0c 4d 3d 9f a8 54 3d ae 1d bc bc
       -0.035217013 0.05006107 0.051918622 -0.022963371
000300 dc 6d 9d 3c 1d 02 6d 3b 04 4e bc bc 02 0d 4d bc
       0.019217424 0.003616459 -0.02298642 -0.012515308
000310 6b 6c 95 3c d4 a1 df bc cf a6 23 3d 77 64 86 3d
       0.018240174 -0.027298845 0.039954003 0.06562131
000320 8f bd 29 bd 3b 99 10 bc 51 91 02 3d 14 bb 11 bd
       -0.041440543 -0.0088255955 0.031876866 -0.035578802
000330 36 34 8c bc cc 1e a8 bc 5e 33 a0 3b 80 86 05 bd
       -0.01711474 -0.020522498 0.004888936 -0.032598972
000340 4e 21 38 bd 3e ec 95 bb 04 c9 66 3d 24 09 89 3c
       -0.044953637 -0.0045752814 0.056344047 0.016727991
000350 5d 6f e7 bc 8e cc 0c 3d bb 4e 88 3c e0 da 74 3c
       -0.028251344 0.034374766 0.016639104 0.014944762
000360 63 e8 d1 3b 27 c5 fa bc 99 8b f7 3b 37 1c f2 3c
       0.0064058765 -0.030611588 0.007554483 0.02955447
000370 80 d9 1a 3d 2b 0b 16 3d a9 47 62 bc 8d b6 1a 3d
       0.03780508 0.036631744 -0.01381103 0.03777175
000380 cb d7 e3 3a 7f ee fa 3c 04 63 c7 bc 0f b1 e0 3c
       0.0017383037 0.030631302 -0.024339207 0.027428178
000390 66 d1 fc bc 07 66 44 3d 9b f4 85 3c c9 24 56 3d
       -0.030861568 0.047948863 0.016351989 0.052281175
0003a0 d7 68 81 3c 63 74 93 bc 7b 1a 0f 3c 08 8d 43 3d
       0.015797062 -0.017999833 0.008734341 0.04774192
0003b0 e1 50 57 bc d2 6f 3a 3d fe f4 1f 3d 10 8f bb bc
       -0.013141842 0.045516796 0.039052002 -0.022895366
0003c0 b1 96 83 3c 1d 3e f4 bc 50 ac 24 bd 21 f2 15 bc
       0.016063066 -0.029814774 -0.040203393 -0.009151966
0003d0 16 03 9a 3c 26 87 b7 3c 33 c2 5e 3c c4 77 3a 3d
       0.0188003 0.022403311 0.013596105 0.045524374
0003e0 a9 c8 9b bc a4 0b 67 bc 01 5a b9 3c 53 6d 32 3d
       -0.01901658 -0.014101896 0.022625925 0.04356129
0003f0 8a aa 58 bd 83 f9 e8 bc c1 35 14 3b 5b 25 72 3d
       -0.052897014 -0.028439289 0.0022615048 0.059117656

conv2.bias f4 [25]
000000 d3 2d 76 bb f0 7d 69 3c bb 48 d7 bc 5f 32 20 bd
       -0.0037563934 0.014251217 -0.026279798 -0.039110538
000010 d6 04 b7 3c 28 6f 1c 3a 6c 5a bf 3b 98 b5 d9 bc
       0.022341173 0.00059674913 0.0058396365 -0.026575848
000020 51 fd 80 3b 40 19 0b bd 71 00 1e bc 96 41 27 3d
       0.0039364477 -0.033959627 -0.00964366 0.040834032
000030 f8 f6 1e 3d e5 ad 37 3d d0 18 42 bd 48 b2 71 3b
       0.038809747 0.044843573 -0.047386944 0.0036879946
000040 2a b3 f8 bb 81 97 51 3d 41 96 2d 3d c5 3d c6 3c
       -0.0075897174 0.051169876 0.04237962 0.024199376
000050 6a cf f9 bc ba 20 58 3c 0f 10 b8 bc 6c b8 48 3d
       -0.03049441 0.013191396 -0.022468595 0.049004003
000060 97 36 40 3d
       0.04692706

conv3.weight f4 [100, 25, 10]
000000 a4 c5 72 bc 25 d1 d3 bc b4 c7 98 3d eb ec 87 3c
       -0.014817629 -0.025856564 0.07459965 0.016592463
000010 ea 8a 81 3d f9 21 a0 3d 69 36 d9 bc bf 5b af 3d
       0.06325324 0.0781898 -0.026515203 0.08562421
000020 de fd 8a 3d 8c 0e 16 3c c8 f9 77 3d 0a f1 26 bc
       0.067867026 0.009158742 0.060540944 -0.010189304
000030 dd 3c 68 b7 17 a8 d8 3c 3f b2 35 bc a9 ce 3b 3d
       -1.3842448e-05 0.026447339 -0.01108986 0.045851383
000040 96 f6 a8 bc 1d 18 dc bc 26 3b 02 3d b7 24 94 bc
       -0.020625394 -0.026866967 0.03179469 -0.018083913
000050 c1 e5 68 bb d5 d5 40 3c 2d 53 e9 bc 36 3c 27 3d
       -0.0035537335 0.0117697315 -0.028482044 0.040828906
000060 fb c9 9a 3d e6 89 7e 3d 8c fd 3f 3d ef ef a5 3c
       0.07558056 0.06214323 0.04687266 0.02025601
000070 9f 6a ae 3d 07 3f 4b 3d 49 74 18 bc 2a 16 e8 bc
       0.0851643 0.049620654 -0.009305068 -0.028330881
000080 15 5c ed 3b 49 41 e4 bc 96 a0 b0 3c d3 bc aa 3c
       0.007243643 -0.027863162 0.021560948 0.020841992
000090 44 f0 0f 3d 7f ca ad 3d 7f bd 97 3c fb 3b ec 3c
       0.035141245 0.08485889 0.018522976 0.028837195
0000a0 55 49 e4 bc 1a ef d4 3c 71 82 6a bc 2b 0d 92 3b
       -0.027866999 0.025992919 -0.014313326 0.004457136
0000b0 97 cc 82 bc b4 59 a1 bb 4e 20 ae bc 6b bb 98 3c
       -0.015966697 -0.0049240235 -0.021255638 0.018644055
0000c0 c0 38 62 3d f9 a0 4e 3d f8 62 10 bd e5 92 1f 3d
       0.055229902 0.050446484 -0.035250634 0.03895845
0000d0 d8 ce a5 3d 02 14 89 3d 90 61 93 bb ed 98 c4 3c
       0.08096093 0.06693269 -0.0044977143 0.023998702
0000e0 55 97 9e bc c3 c8 00 3c d1 f0 88 3d 8c 7d 0f bd
       -0.01935927 0.007860365 0.06686557 -0.03503184
0000f0 89 5b db bc 4e 6e 97 3c 3e e3 4c 3d 7d 98 8b 3c
       -0.026777046 0.018485215 0.050021403 0.017040486
000100 fb 4e 63 3c 74 6c e8 bc 04 a2 9d 3d 43 87 37 3d
       0.013873811 -0.028372027 0.07696918 0.04480673
000110 95 32 85 3d 9e 0d 44 b9 33 12 6a 3d 67 ba 04 ba
       0.065037884 -0.0001869709 0.057146262 -0.00050631765
000120 85 8d fd bc c7 36 20 3d 34 2d 3f 3b 8a 17 a8 3d
       -0.03095127 0.03911474 0.002917123 0.08207615
000130 cb ef 9d 3d 6c 85 b6 3d 0f 6d 94 bc f9 33 60 3d
       0.077117525 0.08912167 -0.01811841 0.054737065
000140 16 14 96 3c 0f 6d 8b 3c 08 56 26 3c 4d 49 85 3d
       0.018320125 0.017019777 0.010152347 0.06508122
000150 eb 21 e4 3c 87 cf be 3d 9b 8a a2 3d 76 c2 15 3d
       0.027848205 0.093169264 0.07936593 0.036562406
000160 0c 00 20 3d 53 75 a8 3d fd c5 2d 3c 19 5a 8f 3b
       0.039062545 0.08225503 0.010606286 0.004374754
000170 68 13 17 bc 0b 31 5e 3c ab ef 13 3d f1 48 5e 3c
       -0.009220935 0.013561497 0.036117237 0.013567195
000180 4a fc 0c 3d ca b8 f4 3c 80 8e c2 bc e6 e7 9f 3d
       0.03442029 0.02987327 -0.02374959 0.07807903
000190 e4 44 09 3d 1f 3f 88 3d 1c 85 2c 3d 0e 64 03 bd
       0.033512965 0.066526644 0.04211913 -0.03207784
0001a0 a4 3f af 3d a5 41 21 3d 9c 60 9f 3d b2 d1 b2 3c
       0.0855706 0.039369244 0.07782099 0.021828506
0001b0 81 8a b2 3a 3f d0 88 3d 6a 39 8b 3d 38 b4 e8 bc
       0.00136216 0.06680345 0.0679806 -0.028406247
0001c0 37 ff 22 3d d1 9e 9a bc 43 eb 11 3d 5a 8b 9c 3d
       0.039794173 -0.018874558 0.035624754 0.07643767
0001d0 37 fd 0a 3d 39 3c fd 3c 4c c2 95 3d b2 66 40 bd
       0.03393289 0.030912505 0.0731245 -0.046972938
0001e0 d7 16 aa 3c c1 8b ad 3d 4a 7b 25 3d f0 1d aa 3d
       0.020762844 0.084739216 0.04040078 0.083064914
0001f0 e0 ea a4 3d 22 d0 a1 3d 33 42 0c bc e5 93 aa 3d
       0.08052611 0.07901026 -0.008560705 0.0832899
000200 3e 99 c9 3c 11 c0 72 3c 1f 20 29 3d 9b 79 60 3d
       0.024609204 0.0148163 0.0412904 0.054803472
000210 50 29 9c 3c 8c 12 7f bc e5 37 31 3c 58 97 a4 3c
       0.019062668 -0.015568387 0.010816549 0.020091698
000220 c9 ce 81 ba d1 4b 8f 3d bf 2e 6b 3d b7 3b 5d 3d
       -0.0009903546 0.06996883 0.057417627 0.054012027
000230 43 ad f7 bc 71 d6 f1 3c 3f 86 f7 3c 02 e8 55 3d
       -0.030233985 0.029521199 0.03021538 0.052223213
000240 aa ed 00 bd 6e 30 30 3d 66 e6 ef 3c 2e 28 ec bc
       -0.031476654 0.043014936 0.029284667 -0.028827753
000250 f1 b6 10 3d 77 30 f7 bc c4 47 18 3d 9c d5 77 3d
       0.035330717 -0.030174477 0.037177816 0.06050645
000260 f8 b4 96 bc 15 0b 71 3c 9f 8b 8b 3d 06 5f 43 3d
       -0.01839684 0.014712115 0.0681374 0.047698043
000270 3f bd 87 3d 6c 42 84 3d ab 53 04 3d f7 dc d6 bc
       0.06627893 0.064579815 0.032306354 -0.026228411
000280 b9 2a 2d 3d 4e fc 6a 3d c9 aa a4 3d 80 ca 1b 3d
       0.04227707 0.057369523 0.08040387 0.038034916
000290 67 f6 c3 3d f0 fc 8f 3d 53 d0 4b 3d 26 04 16 3d
       0.09568482 0.07030666 0.04975922 0.03662505
0002a0 ff a3 bf 3b 61 b7 94 bc 11 ef 3b bd c2 77 a0 bc
       0.0058484073 -0.018153848 -0.04588229 -0.019588355
0002b0 c5 58 02 38 d6 88 12 bd 12 d6 97 bc c5 d8 39 3c
       3.107709e-05 -0.03577503 -0.018534694 0.011343186
0002c0 e9 79 3e 3d c9 85 ca bc a6 59 52 bc 8c c3 46 bc
       0.04650298 -0.024721997 -0.012838757 -0.012131583
0002d0 28 c4 44 bd 56 d5 2d bd 07 6a b8 3c 49 66 11 bd
       -0.04803863 -0.04243978 0.022511495 -0.035497937
0002e0 7f c5 ea bc f3 3c 31 bd 74 6c 1f bc 14 fa ea 39
       -0.028658627 -0.043271016 -0.009730447 0.0004481828
0002f0 9a 24 87 3d c6 0a 83 3d c5 27 28 bc 4d d6 ea 3c
       0.06598778 0.06398539 -0.010263388 0.02866664
000300 1e d4 67 3d 6c d8 28 bd 37 b4 15 3d 45 71 93 3d
       0.056598775 -0.04122202 0.03654882 0.07199339
000310 18 0a ac bc 03 8e 18 3a 7c ce 05 bd 12 ae 38 3d
       -0.021000907 0.0005819501 -0.032667622 0.04508788
000320 d5 e7 b8 3c ca b3 c1 3c 60 c3 cc bc 8c 00 8f 3d
       0.022571484 0.0236453 -0.024995506 0.06982526
000330 87 0b 8a 3d 70 a6 29 bd 26 28 08 bd 1f 79 15 3c
       0.0674048 -0.041418493 -0.033241414 0.009123116
000340 e9 43 a1 3a 12 c1 4f 3d 9b 39 9a 3c 0a 55 e5 3c
       0.0012303564 0.050721236 0.018826297 0.027994651
000350 f3 54 22 3c ef 33 95 bb 7c fe 84 bb 4e 45 aa 3d
       0.009907949 -0.00455331 -0.004058657 0.08314
000360 b8 cd fe bc b9 0e bd bc 26 b5 67 3d 8d c7 8a bc
       -0.031103954 -0.02307831 0.05656924 -0.016940856
000370 d7 8e 8f 3c 49 7e b2 3b b7 d7 83 3d 55 f5 79 3d
       0.017524166 0.0054471833 0.06437629 0.061024982
000380 6d e0 9b 3d 2f 41 3d 3d fe 27 29 3d 3b 94 24 bc
       0.07611165 0.046204742 0.041297905 -0.0100451065
000390 13 80 88 3c 66 18 ae bc e9 22 53 bd 72 37 3a 3b
       0.016662633 -0.021251868 -0.051546965 0.0028414396
0003a0 8c b2 8a 3d 5e c9 01 3b b1 17 1e 3d c2 a2 d8 ba
       0.06772336 0.0019803862 0.038596813 -0.0016527998
0003b0 b9 0a 88 3d 0a 91 2d bd 4b 33 25 bd 30 6b 07 3d
       0.0664267 -0.04237465 -0.04033212 0.033061206
0003c0 fb 43 9e 3c 6b 6b 15 bd 4a f8 d0 bb 9f 1e 5a 3d
       0.019319525 -0.036479395 -0.0063772546 0.05325186
0003d0 63 59 06 3c 56 0f 5a 3d 8f ed 78 3d ea 56 6b bc
       0.008200022 0.05323728 0.06077343 -0.014363984
0003e0 16 93 12 3d 74 62 19 3d ea d3 63 3d 0d ae a3 3d
       0.035784803 0.037447408 0.05562202 0.07992182
0003f0 cb fc 4c 3d d5 50 94 3d 2d 05 6c 3c 28 38 ac 3d
       0.05004577 0.0724198 0.014405531 0.084091485

conv3.bias f4 [100]
000000 4e a1 f1 3c 38 a1 74 3c 8d 8f 83 3c cc a2 f5 bc
       0.029495861 0.014931016 0.016059661 -0.029984854
000010 9b 2e 0a bd 73 2e 0f bd 11 40 12 bb 80 26 31 3d
       -0.033735853 -0.034956407 -0.0022316019 0.043249607
000020 f7 5c 9d bc d8 67 bc 3b 6c 03 4a bd 14 27 0e 3d
       -0.019209368 0.005749684 -0.04931967 0.034705237
000030 88 f0 85 3d d0 bc 91 bc 38 39 82 bd 12 32 0b bd
       0.06540018 -0.017790228 -0.0635857 -0.033983298
000040 ea 8c 3e bc 38 82 51 3b 91 2d 4a 3c f6 2e 58 bd
       -0.011630276 0.0031968486 0.012339965 -0.05277916
000050 01 c0 84 bd 3f 59 e7 3c cc 57 3c 3d df 62 d7 bc
       -0.06481934 0.028240798 0.045982167 -0.026292263
000060 8a a2 91 bc 1e 8e 64 3c bd da 6b bd 0a 3a 94 3d
       -0.0177777 0.013949899 -0.057581652 0.072376326
000070 a7 7a 47 bd 5a ef 0f 3d 8a 64 5c bd e1 1e 63 3d
       -0.048700955 0.035140373 -0.05380682 0.05544937
000080 b4 02 8f 3d da 1d 6d 3d 09 51 3b 3d 9c f8 dd bb
       0.069829375 0.057889797 0.045731578 -0.0067740213
000090 f3 b8 2d bc 2b bf 30 bd 36 f6 24 3d 48 5e 07 3d
       -0.010603177 -0.043151062 0.040273868 0.033048898
0000a0 26 99 d1 bc 15 8a 86 3d 33 aa 9f 3c 21 cb 21 bd
       -0.025585722 0.06569306 0.019490337 -0.03950036
0000b0 2f d0 3d bd b8 bb 14 bd bd bf 2b 3d e3 be 67 3d
       -0.046341117 -0.036311835 0.041930903 0.056578528
0000c0 e8 b4 48 3d a8 a2 1d bb 1c 39 dc 3c 68 14 35 3d
       0.04900065 -0.002405325 0.0268827 0.044208914
0000d0 fa fb af 3b 85 01 40 3d 75 20 e1 3c 6e f0 83 3d
       0.005370614 0.04687645 0.027481297 0.06442343
0000e0 ec ae 8a 3d df a9 8e 3d bc 5d c7 3c 40 dc 85 3d
       0.06771645 0.06965994 0.024336688 0.0653615
0000f0 a4 37 e8 bc 33 c9 6d 3c f6 96 3b 3d 44 df 28 3d
       -0.028346844 0.014513302 0.045798264 0.041228548
000100 0b 40 dd bc ba 50 01 bd 6a 25 28 3c ef 16 53 3d
       -0.027008077 -0.031571127 0.010262826 0.051535543
000110 8e 5e 3f 3d ae 2a cc 3b 69 a4 06 3d 96 15 81 bd
       0.046721034 0.0062306738 0.032871637 -0.06302945
000120 fa a7 d3 bc c4 8f 58 3b c6 72 30 bd e3 71 fd 3c
       -0.025836933 0.0033044675 -0.043078206 0.030938094
000130 23 6e 07 3d ad 21 db 3c bc 62 ee 3c 23 ca eb bb
       0.03306402 0.026749456 0.029099815 -0.0071957274
000140 87 32 3d 3d 74 4a 3f 3d fd 05 a6 bc 30 5e 0e bd
       0.046190765 0.046701863 -0.020266527 -0.034757793
000150 da 03 e9 3b 61 3a 29 bd e3 75 12 39 81 f2 13 bd
       0.007111055 -0.04131544 0.00013967561 -0.03611994
000160 b4 72 43 3d 7f 4e 0c bd ba c6 82 3d ac 64 1f bd
       0.04771681 -0.034254547 0.0638556 -0.038914368
000170 20 3a ad bc 3b f4 cd 3b 1f dd 32 bd d1 d4 31 3c
       -0.02114588 0.006285218 -0.04366791 0.010853962
000180 ad 2b 03 3d 90 df 6f 3d 99 f8 f4 3c 7f dd 80 3c
       0.032024074 0.058562815 0.029903697 0.015730618

conv4.weight f4 [50, 100, 10]
000000 c0 72 b9 3c fc 9d 80 39 86 95 c3 3b cd 0c e7 3b
       0.022637725 0.0002453177 0.0059687523 0.0070510865
000010 a3 0b c6 3c a7 ce 81 3c e4 5c e8 3c 1a 0b b5 bc
       0.02417547 0.01584561 0.028364606 -0.02210002
000020 25 63 4c bc 09 2e b6 3c eb e7 90 ba 80 21 b8 3c
       -0.01247481 0.022238748 -0.0011055445 0.022476912
000030 f4 69 6a 3c 2b 9f 9d 3a 70 cc 12 3c 5f 30 6b 3b
       0.014307488 0.0012025585 0.0089598745 0.0035886986
000040 79 5f 0b bb f4 6e a1 bc c5 ce 95 bc b3 01 ec bc
       -0.0021266623 -0.019706227 -0.018287072 -0.028809404
000050 26 54 e1 3c f4 8e e4 bc e9 8e 01 bd d6 41 00 3c
       0.027505945 -0.027900197 -0.03163043 0.0078281965
000060 e0 fc b0 bc 37 17 27 3b c2 eb e0 bc 36 bb 00 3c
       -0.021604955 0.0025496015 -0.027456168 0.007857135
000070 b1 8e 58 3c 24 46 c6 bc 8b 18 eb 3c ce 0c 85 3c
       0.013217614 -0.024203368 0.028698226 0.016241457
000080 3b f0 8e bc 18 82 ef bc 12 f2 4a bb 32 c4 b5 bc
       -0.017448535 -0.029236838 -0.003096704 -0.02218828
000090 4b 5a 9c bc e6 71 8c bb 12 be 47 bc 4a 35 aa 3c
       -0.019086024 -0.0042860387 -0.012191312 0.020777363
0000a0 14 fd d3 bc e5 2f 99 bc 06 5d 29 3c 5d 7c 56 bc
       -0.025877513 -0.018699596 0.01033712 -0.013091174
0000b0 9d 83 68 bb fb 0a 41 bc 7f 71 5b bc 31 a1 6e bc
       -0.0035478838 -0.011782403 -0.013393759 -0.014564798
0000c0 2c ad ef bc 77 90 a1 bc e7 98 c0 bb b8 16 a6 bc
       -0.02925738 -0.019722207 -0.0058776024 -0.020274505
0000d0 67 f2 9f 3c 44 df 7b 3c b2 42 dc 39 4a 6c c3 bc
       0.019524766 0.015373055 0.00042011362 -0.023855347
0000e0 17 54 fe bc e7 0a ff 3c b9 8c db 3c 9a 48 a2 bc
       -0.031045957 0.031133128 0.0268005 -0.01981001
0000f0 a4 19 9f 3c 16 ab ae bb dd 99 4c 3c 28 11 7a 39
       0.019421406 -0.0053304536 0.012487856 0.00023848249
000100 4e 3c 87 ba 31 78 d8 bc 3c d7 da bb 50 ea b9 bb
       -0.0010317655 -0.0264245 -0.00667849 -0.005673684
000110 41 0d f0 3c 12 e9 d4 bc fc 5a 82 3c e8 73 c6 bc
       0.029303195 -0.025990043 0.015912525 -0.02422519
000120 33 18 f6 bc 7f 71 09 b8 97 2a da bc 6a 05 34 bc
       -0.030040836 -3.2769047e-05 -0.026631637 -0.010987619
000130 04 c9 a1 bc ae cf e1 bc 6d 0e 4f bb 10 db 34 bb
       -0.019749172 -0.02756485 -0.0031594292 -0.0027596392
000140 4e 17 9b 3c 15 c3 53 bc 44 4c ba bb be 57 b4 3c
       0.018932011 -0.012924929 -0.005685361 0.022014495
000150 27 d5 fb bc c9 6c df 3c 5e 4a c8 3b f8 2f 98 3c
       -0.030741287 0.027273552 0.006112381 0.01857756
000160 59 0a 39 3b 31 57 8e bc 3b f7 d4 bb a6 9e 41 bc
       0.0028234927 -0.01737556 -0.0064991987 -0.01181761
000170 df 86 fd 3c 18 a0 ef 3b c3 33 88 39 dc fa 8d 3c
       0.0309481 0.007312786 0.00025978507 0.017331533
000180 97 66 f5 bc f3 66 9e bc 93 fe 9f 3b c3 83 d2 bc
       -0.029956145 -0.0193362 0.0048826425 -0.025697595
000190 3a 53 ac bc 51 5f 39 bc 99 19 35 bc 03 f1 e8 bc
       -0.02103578 -0.011314229 -0.011053466 -0.028435236
0001a0 2a 8a 22 3c e5 b4 ea bc ba 9c 14 3c c9 c9 c5 3b
       0.009920636 -0.02865071 0.00907057 0.0060360176
0001b0 46 b1 f5 bc b8 fb cc 3c b3 6a a7 3c 7d 23 f8 3a
       -0.029991757 0.025022373 0.02043662 0.0018931475
0001c0 2f 6a de 3c 14 8e 97 bc 99 f5 bc bc 57 15 66 3b
       0.027150242 -0.018500365 -0.023066329 0.0035107934
0001d0 9e 14 e8 3c f0 0a f3 bb f7 2c e1 3c 6f 14 eb bc
       0.028330144 -0.0074170753 0.027487261 -0.028696267
0001e0 e2 6e 89 bb a5 f4 52 3c 1d e5 e3 bc 66 7f d0 bb
       -0.0041941265 0.012875711 -0.02781921 -0.0063628433
0001f0 01 66 22 3b 25 fb f1 bc 4e 38 be 3c 04 8b e4 bc
       0.0024780037 -0.0295387 0.023220208 -0.027898319
000200 71 55 74 3c 93 ee c2 3c 43 b8 d4 3c 29 bd 3c 3c
       0.014912949 0.023795402 0.02596677 0.011519709
000210 33 c8 cb 3b 1b 4b ec bc 79 bc af bc 4b a3 fc bc
       0.006218934 -0.028844407 -0.021452175 -0.030839583
000220 2c 86 cb ba 5c dc d0 3a e4 d3 9e 3c 18 87 8f 3c
       -0.0015527657 0.0015934813 0.019388147 0.017520472
000230 1e 18 4d bb 40 57 d8 3c 16 ed db 3c e8 50 ab 3c
       -0.0031294893 0.026408792 0.02684645 0.020912603
000240 5c 78 fd 3c 8a 31 f8 3c 56 b0 8d 3a 58 86 e3 bc
       0.03094118 0.03029706 0.0010809998 -0.027774021
000250 0a c1 aa 3c 31 b2 ad 3c 7f 63 a1 3c 7b 55 81 bc
       0.020844001 0.021203132 0.019700764 -0.01578783
000260 58 cc e4 bc d0 bd 98 3c 62 ea 80 bb 7b cd b0 3c
       -0.02792947 0.018645197 -0.0039341906 0.021582356
000270 6e 38 0a bb 7f 60 6f 3c 65 2d a3 3c 55 4d e5 3c
       -0.0021090764 0.014610409 0.019919107 0.027990976
000280 91 34 bd 3c 85 fc 88 ba 6f 27 35 bb 26 a7 82 3c
       0.023096355 -0.0010451233 -0.0027641912 0.015948843
000290 05 f3 52 3c 93 d7 ff 39 0e 7c 18 bc 4e 31 85 bc
       0.012875323 0.00048798005 -0.009306921 -0.016258862
0002a0 53 d8 d7 bc 9e 3d f7 3c ad e3 c7 bc b4 70 f7 ba
       -0.026348269 0.030180749 -0.024400556 -0.0018878193
0002b0 4f 64 37 bc 87 75 96 3c 37 a1 70 3b 1e 44 cc 3c
       -0.011193349 0.018366588 0.0036717185 0.024934825
0002c0 bf 08 0e 3c 35 f6 5a bc 21 08 90 bc 13 87 55 3c
       0.008669077 -0.013364364 -0.017582001 0.0130326925
0002d0 66 7b 42 bb a5 c3 44 bc 1b 0d e3 3c de 41 ce bb
       -0.0029675602 -0.012009536 0.02771621 -0.006294473
0002e0 6d 76 ef bb 66 be eb bb fc f3 48 bc a3 4d 6f bb
       -0.0073078186 -0.007194328 -0.012265202 -0.003651478
0002f0 87 fe 90 bc 34 f4 71 bc c8 04 7a bc 56 f9 9c 3a
       -0.017699493 -0.014767695 -0.015259929 0.0011976163
000300 a0 47 e1 3b 1b 08 e9 3c 52 8a 37 3c ca e6 23 3c
       0.0068749934 0.028446248 0.011202412 0.010003755
000310 f9 c1 44 3c 3f 41 1d 3b 50 c0 b9 bc b9 fa 99 3c
       0.012009137 0.0023995189 -0.02267471 0.018796312
000320 ca 9e 00 bc 9f 80 50 3c 7f 7d 5b bc 88 3a 98 bc
       -0.007850358 0.012725978 -0.01339662 -0.018582597
000330 5f 9a ef bc 4f a5 f0 bc 9c de f1 bc fe e6 85 3c
       -0.029248415 -0.0293757 -0.029525094 0.016345497
000340 12 91 37 3c b8 65 e0 3c 9e ec 75 3c ef 12 59 bc
       0.011204021 0.027392253 0.015010027 -0.013249143
000350 f1 a8 86 bc 0d 9a 8b 3c d7 83 f1 3c 6c 9a 6e bb
       -0.01643798 0.01704123 0.029481811 -0.003640796
000360 9d 0f 06 bc 7e 25 98 bc da 31 5f 3c f7 26 ce 3b
       -0.008182433 -0.018572565 0.013622725 0.006291266
000370 78 a6 ff ba 57 c4 da 3c 37 f6 5c 3c a5 e0 4f bc
       -0.0019504568 0.02670495 0.013486437 -0.012687837
000380 0d ce 7c bc 82 02 a9 3b 4a e6 0e bc 70 e4 6f bc
       -0.015429986 0.0051577697 -0.008721897 -0.014641866
000390 ec b3 99 3c 53 da d2 bc db 6d d8 39 ed da b4 3c
       0.018762551 -0.02573887 0.0004128058 0.022077048
0003a0 da 64 ae 3c c4 20 40 3b 18 e0 4c 3c 4b e0 a2 3c
       0.021288324 0.0029316405 0.0125046 0.019882342
0003b0 31 6e 72 3b dd e6 82 bc 0e 3b a8 3b bf d2 1e bc
       0.0036991949 -0.015979225 0.005133993 -0.0096938005
0003c0 c6 f9 b9 3c 7a ec 70 bc 81 66 53 bc 66 f3 b8 bc
       0.022702109 -0.014704818 -0.012902857 -0.022576999
0003d0 fd 37 62 3b 41 e9 a5 3c 36 c2 44 bb 6b 63 8c 3c
       0.0034518235 0.020252826 -0.0030022985 0.01713725
0003e0 08 03 ca 3c 51 bb e8 bc 02 a4 58 3b 56 4b 8b 3c
       0.024659649 -0.028409632 0.003305674 0.017003696
0003f0 d2 5b 8c 3c 01 6c 0f bb 05 66 05 bc 8f 41 0f bc
       0.017133627 -0.0021884444 -0.008141999 -0.008743658

conv4.bias f4 [50]
000000 ca c3 a6 bc d3 ad 2d bc fe f3 c7 bc cc d2 3b 3b
       -0.020357031 -0.010600525 -0.024408337 0.002865958
000010 92 e4 b4 3c 4a e1 bb bc be 01 aa bc e9 f2 54 bc
       0.022081647 -0.022934575 -0.020752784 -0.012997367
000020 98 e7 a5 3c bc 6a bd 39 5e c5 61 bc e8 fe 40 bb
       0.020252034 0.00036128412 -0.013779966 -0.002944881
000030 ba 0e db 3c 77 2b 8f bc 04 e8 43 3c 6a e8 0c bc
       0.02674042 -0.01747678 0.011957172 -0.008600334
000040 8a de b7 bc 1c d1 ac bc 56 cb af bc 26 f7 ba bc
       -0.022444982 -0.021095805 -0.021459263 -0.022822928
000050 2e ec fc 3c 7b c7 42 bc 84 50 bc bc 41 b7 6d 3b
       0.030874338 -0.01188838 -0.022987612 0.0036272558
000060 7b 23 a7 3c ce 5c b4 3b b5 65 8e 3b 93 69 02 3d
       0.02040266 0.0055042272 0.0043456205 0.031838965
000070 f0 87 40 bc 94 64 fd 3c 1b 54 c4 bc 3a 0d e7 3c
       -0.01175116 0.030931748 -0.023965886 0.02820455
000080 6c 63 9a 3c 98 a7 05 3d 17 ad 25 3d 68 8c b9 3c
       0.018846236 0.032630533 0.040448274 0.022649959
000090 fa 3a ae bb 0a 53 da 3b 3c 58 48 bb ab ac c8 bc
       -0.005317089 0.006662731 -0.003057017 -0.024496397
0000a0 19 13 77 3c 3e d4 89 bc e5 5b b3 3c b1 80 ab 3c
       0.015080237 -0.016824838 0.021894405 0.020935388
0000b0 d7 f4 8a ba 9c d5 e9 3c 33 c6 b8 bb 13 b3 8a 3c
       -0.0010601532 0.02854424 -0.0056388616 0.016931092
0000c0 1e 7b a0 bc 50 7d 15 bc
       -0.019589957 -0.009124115

conv5.weight f4 [100, 50, 10]
000000 72 a8 b6 3c 95 1b 16 bd 41 0c b4 3c e7 7c 54 bb
       0.022297118 -0.036647398 0.0219785 -0.003242308
000010 3a af d4 bc a0 c6 47 3c c9 06 fd bc 16 7a 2e 3d
       -0.02596246 0.012193352 -0.030887024 0.0425969
000020 d7 c6 04 3c 86 10 a0 3c 2b 77 0e 3d 22 a9 89 3c
       0.008104048 0.019539129 0.034781616 0.016804282
000030 ae 1b de bc 4e 01 db bc 99 b4 86 bb 3d 7e 28 3d
       -0.027112808 -0.02673402 -0.0041108844 0.041136015
000040 5e 1b f3 b8 3b 23 8f bc 10 9b 05 3d c8 f3 cf 3c
       -0.000115922405 -0.017472854 0.032618582 0.025384799
000050 75 81 14 3d cb fb c8 3c 87 37 36 3d fb f3 1d ba
       0.036256272 0.024534127 0.04448655 -0.00060254306
000060 49 94 83 3c 7f b2 19 3d 35 30 32 bd 61 7f 1b bc
       0.016061919 0.037523743 -0.043503005 -0.009490819
000070 f7 cf 5a 3c 87 3a 75 3b 4b 91 d0 3c 84 0f ce bb
       0.013355247 0.0037418918 0.025459906 -0.0062884707
000080 7f 9d b3 bc 9b 3e 1d 3c f1 c5 1d bd 9d e0 28 3d
       -0.021925686 0.009597446 -0.03851885 0.041229833
000090 b6 bb be bc 1b 54 21 3d 35 15 da bc 8f 0d db 3c
       -0.023282867 0.03938685 -0.02662144 0.026739864
0000a0 d8 3f 8e bc 4c 75 56 3d a7 64 92 3c 50 b5 1c 3d
       -0.017364427 0.052357957 0.01787026 0.03825885
0000b0 7c 70 b5 ba b0 31 ea 39 50 d4 d5 3c ea 60 15 3d
       -0.0013842727 0.00044668978 0.026102215 0.036469378
0000c0 f2 1f 29 3d 76 3b 26 3d 3d 91 bc bc 20 5e fd bc
       0.04129023 0.04058405 -0.023018474 -0.030928671
0000d0 fe 7f 33 3d 58 04 f5 3c 7c f8 e2 3c 3a 97 6d bc
       0.043823235 0.029909298 0.027706377 -0.014501387
0000e0 b2 49 94 bc b0 e0 2e 3d 9a b0 02 bd 8f 04 1d bd
       -0.018101547 0.042694747 -0.0319067 -0.038334426
0000f0 a7 3c 86 bc af 9a fe bb 73 e4 02 bb 48 fe e2 3c
       -0.016386343 -0.0077699046 -0.0019972592 0.027709141
000100 27 34 1c bd c7 0c 18 3d 69 52 83 bc 43 c3 09 bd
       -0.038135674 0.03712156 -0.016030507 -0.03363348
000110 5f 21 df bc f4 07 44 bc 55 a7 b4 bc 87 d5 b5 3c
       -0.027237592 -0.011964787 -0.022052446 0.022196544
000120 56 ea 1d 3c e8 10 10 3b d7 54 fe bc 92 03 9b bc
       0.00963839 0.0021982733 -0.031046314 -0.0189226
000130 a5 df 40 3c be 3e d6 bb d9 aa fd bc 3c 8d d3 bc
       0.011772071 -0.006538241 -0.030965256 -0.025824182
000140 b2 6a d0 bc 61 d1 38 3d 26 a5 21 3d 95 f7 9c bc
       -0.025441501 0.045121554 0.03946414 -0.019161025
000150 c3 ec 0b 3c 46 d7 cb bc ef f4 ef 3c 5c 70 0f bc
       0.008540335 -0.024882924 0.029291598 -0.008754816
000160 7a 50 ef bc 5f e8 4a 3c b4 96 c2 bc d3 bf 8b bc
       -0.029213179 0.012384503 -0.023753501 -0.017059242
000170 f0 12 c0 bc c1 51 ca bc 36 a7 17 bb bf 3f 20 3c
       -0.02344653 -0.024697186 -0.0023140437 0.009780823
000180 57 b7 17 3d 3e 59 af ba 3a 2d 35 3d 1b 27 84 bc
       0.03704008 -0.0013378037 0.044232585 -0.016131928
000190 5c 07 56 ba 11 cb ab 3c f3 93 6f 3b 6f ad 25 3c
       -0.0008164549 0.020970853 0.003655669 0.010112151
0001a0 44 01 88 ba 63 3a c9 3b 79 66 b5 3c b3 35 bb 3c
       -0.0010376354 0.0061409934 0.02214359 0.022852754
0001b0 02 86 2c 3c 3a 80 38 bd 37 ae 70 3c 10 83 cb 3a
       0.010529997 -0.04504416 0.014689974 0.001552673
0001c0 8d 38 24 3d cc 3d 27 3d 99 a9 db 3b 03 5a 95 bb
       0.040092994 0.04083042 0.006703567 -0.0045578494
0001d0 1f 97 c8 bc c1 eb 6b 3c e4 3b de 3c 8d e6 e1 3c
       -0.024486123 0.01439947 0.027128167 0.027575755
0001e0 d9 ce de 3c 58 13 6f 3c 2d ef 17 3d de c5 fd 3b
       0.027198242 0.014592014 0.03709333 0.007744535
0001f0 f0 00 23 bc f7 24 2c bd 5e 77 07 3d ff 02 c8 bc
       -0.009948954 -0.04202744 0.03307282 -0.024415491
000200 a8 e8 25 3d 3f fc cb bc f0 bc 5a 3c 0d 33 c9 3c
       0.04050508 -0.024900554 0.01335071 0.024560476
000210 78 42 17 bd 14 f2 ab bb 19 05 b4 3b 6a 65 a2 3c
       -0.036928624 -0.005247364 0.0054937718 0.019823749
000220 2f 68 a0 bc 97 d3 04 3d ba 0a be 3c db 31 08 bd
       -0.019580929 0.03242835 0.023198474 -0.03325067
000230 1f 3c 1e 3d c4 a5 69 bc b6 97 c9 3b 84 05 4d 3d
       0.038631555 -0.014260713 0.0061521186 0.05005409
000240 b5 0e 1b 3c 20 58 89 3c 37 86 09 3d a2 33 9d 3c
       0.009463956 0.016765654 0.033575263 0.01918966
000250 80 b2 fc bc 55 e1 d7 b9 24 7c ee bc 06 ab 30 bd
       -0.030846834 -0.0004117588 -0.02911193 -0.04313185
000260 74 be a3 bc 93 08 b0 3c 25 5a 45 bc 64 87 3a 3c
       -0.019988276 0.021488464 -0.012045418 0.011384819
000270 a3 7b ea bc e9 fa d1 bc b0 0c 15 3c 47 5b 9a 3c
       -0.028623408 -0.025632339 0.009097263 0.018842353
000280 e4 a3 06 3d 31 7a 82 bb 01 7d e3 38 b7 c3 9e bc
       0.032871142 -0.0039818515 0.00010847487 -0.019380433
000290 34 02 22 bb 3d 47 08 3c 5c ed 67 bc 99 ac 85 bc
       -0.0024720551 0.008317766 -0.014155712 -0.016317653
0002a0 bf 55 43 ba 51 6c 78 3c d1 3d a3 3b 5b 2c d1 3c
       -0.0007451437 0.015162543 0.0049817343 0.025533846
0002b0 00 11 32 3a d5 28 44 bd ba 6e f9 bc c8 31 53 bb
       0.00067926943 -0.047890503 -0.030448306 -0.0032225717
0002c0 e4 89 d1 3b 8a 41 31 bd ce 11 98 bb 79 7c ba 3c
       0.0063946117 -0.043275394 -0.0046407944 0.022764431
0002d0 0a 45 ff 3c d9 6f 90 3c 7c 76 2a 3b a4 6e 0d bd
       0.03116085 0.017631458 0.0026010564 -0.034529343
0002e0 f9 ed 42 bc 78 48 8a 3c da 10 ee 3b 05 e7 f0 3a
       -0.011897557 0.016880259 0.0072651925 0.0018379396
0002f0 fc 0c c9 3c 15 d1 31 3d 04 66 21 bd 01 53 ed 3c
       0.024542324 0.043412287 -0.03940393 0.028970243
000300 44 51 cf 3c 1a eb 33 bd 58 66 f1 bc eb 38 10 bd
       0.025307305 -0.043925382 -0.029467747 -0.03521053
000310 c3 41 0a 3c a9 e6 29 bc ba 48 a9 bc 79 87 0d bd
       0.00843853 -0.010369935 -0.020664562 -0.034553025
000320 ee 03 ca bc 9e da 5a 3d a3 de 7b 3c 16 65 c7 3c
       -0.024660077 0.053431146 0.015372905 0.024340194
000330 54 56 02 3d eb 73 b9 bc 2c d7 c1 bc bf e7 dd 3c
       0.03182061 -0.022638282 -0.023662172 0.027088044
000340 86 1e da bc 04 be fd 3a db 97 03 3d de a2 50 3b
       -0.026625883 0.0019358997 0.032127243 0.0031835358
000350 50 27 40 bb 1b 11 a1 bc ca d8 22 3d d0 a9 d5 3b
       -0.0029320307 -0.019661477 0.039757527 0.0065204874
000360 93 7c a1 3c ca 8e 14 bd c8 ed 01 bd ec cd 17 bd
       0.019712722 -0.036268987 -0.031720906 -0.037061617
000370 45 28 25 3d d9 dc 8c bc 06 94 2a 3d 36 6b 88 3c
       0.040321607 -0.017195152 0.041645072 0.016652685
000380 5c f7 32 3d d6 65 17 3d 95 a8 11 3d f4 e3 60 bc
       0.04369293 0.036962353 0.035561163 -0.013726223
000390 41 5b 8f 3c a8 ef 40 bc b3 27 d5 3c 4d 02 c7 3c
       0.017499568 -0.0117758885 0.026019907 0.02429309
0003a0 e4 af cd bc 43 99 cb 3b c5 85 e2 3a 06 cb 5f bc
       -0.025108285 0.0062133386 0.0017282298 -0.013659244
0003b0 c2 e1 d8 bc 81 cf 0c bb 2d ae f1 bc 96 f9 95 3c
       -0.026474837 -0.0021485987 -0.029501999 0.018307488
0003c0 9a a3 20 3c 89 e3 1a b8 4e aa 00 bc de 82 c1 3c
       0.009804631 -3.692837e-05 -0.007853104 0.023621973
0003d0 1f 84 60 3c 04 2f 33 3a 8a cc 00 bd 1f d5 96 3c
       0.013703375 0.0006835314 -0.031445064 0.018412171
0003e0 e8 4f 67 bc 97 30 c1 bc 8d c3 03 3d 37 75 52 3d
       -0.014118172 -0.02358274 0.032168914 0.051381316
0003f0 46 9c d4 3c 1d 41 09 bd c1 6d 7f bc d9 7f d0 3c
       0.025953423 -0.033509362 -0.015590132 0.025451588

conv5.bias f4 [100]
000000 bc ef 2d 3d 58 1f 5c bc 8d ae 79 bc 12 62 7a 3c
       0.042464957 -0.013435207 -0.01523937 0.015282171
000010 82 26 70 bc 94 81 54 3c 07 4f 82 3c cd 2b 44 bd
       -0.0146576185 0.012970347 0.015906824 -0.047893334
000020 8b d5 a6 bc 3e cf d3 3b a0 7d 1b bd 7d 40 52 bc
       -0.020365497 0.006463914 -0.037961602 -0.012832758
000030 ed 3f cc 3c 27 ef 46 3d e2 2e 93 bc be 0c e0 bb
       0.024932826 0.048567917 -0.017966691 -0.0068374565
000040 92 e6 4d bb f4 d7 83 3c ad 2e 80 bb 79 bc 99 bc
       -0.0031417948 0.016094185 -0.003911814 -0.018766629
000050 bf b8 39 3c 6c e1 10 bd 31 82 8a 3c cc 57 ea 3c
       0.011335551 -0.03537123 0.016907783 0.028606318
000060 33 c1 f9 bc 3e 4c ad 3c a5 ad ec bb 1f 7b b3 bc
       -0.030487632 0.02115452 -0.0072228485 -0.021909295
000070 24 87 c2 bc ad 17 26 38 cd 48 13 3b 33 cf 6b bc
       -0.02374608 3.9599534e-05 0.0022473813 -0.014392662
000080 50 a3 c9 3b 27 a7 e8 bc 10 55 24 bc bd 94 b3 3c
       0.0061535016 -0.028400017 -0.010030046 0.02192151
000090 9a 0c 1d bd c1 4d 19 3d d6 a1 00 3d 37 32 55 bc
       -0.038342096 0.037427668 0.03140434 -0.01301246
0000a0 8b 54 0d 3d 04 6d 04 bd 58 ed a1 bc 32 8a 4b bd
       0.034504455 -0.032330528 -0.019766495 -0.04969234
0000b0 2a d6 2b bd 4b a7 30 bc 85 a4 57 3c 51 05 26 3d
       -0.04195229 -0.010782073 0.013161783 0.040532414
0000c0 6e c7 3c 3d 6e 3c 13 bd 40 ef a6 3c c7 d3 6f bc
       0.04608863 -0.035946302 0.020377755 -0.014637894
0000d0 f1 92 a1 bc 67 78 df bc 67 c1 2a bb 3f 40 26 3d
       -0.019723387 -0.027279092 -0.0026055218 0.040588614
0000e0 d8 f8 3f 3c c4 29 25 3d 34 81 5e bb 60 58 03 3a
       0.011717044 0.040323034 -0.0033951523 0.00050104223
0000f0 41 87 07 bd 7f 28 13 3d bc 0e 1a 3d 2d 9e 5a 3b
       -0.033087973 0.035927292 0.037611708 0.003335844
000100 30 98 8e 3b 4b c4 5d bc bf 13 55 3c 71 5b 18 bd
       0.0043516383 -0.013535569 0.013005196 -0.03719658
000110 be d2 04 3c 30 4d 06 bd 12 3f 9b 3c 42 d1 5a bc
       0.0081068855 -0.032788455 0.018950973 -0.013355555
000120 60 e6 d7 bc bb ea 48 3d 2a d9 41 3d 32 e4 da 3c
       -0.026354969 0.04905198 0.047326244 0.02672014
000130 10 e4 0a 3d e2 e4 68 3b a9 4a ef 3c 4b 70 db 3b
       0.033908904 0.0035536815 0.029210405 0.006696736
000140 c8 3d ef 3c 63 45 c0 bc 18 fe e3 bc 10 e6 2a 3c
       0.029204264 -0.023470586 -0.027831122 0.010430828
000150 13 75 43 bd bb 02 18 3d 96 3d 48 3a 90 4b b3 bc
       -0.047719073 0.03711198 0.00076385716 -0.021886617
000160 8c 52 f4 bc 02 1f e6 3c 50 28 5e 39 c2 b5 1b bd
       -0.029824518 0.028090958 0.00021186587 -0.038015135
000170 0b 7c bf bc bb 69 27 bc ae 11 26 3d 32 77 0b bd
       -0.023374578 -0.010218079 0.040544204 -0.03404922
000180 88 1f c5 3c cf ac 18 3d cb 13 08 bd 9f 3d ab 3c
       0.024062887 0.037274178 -0.033222 0.020903407

fc.weight f4 [2, 100]
000000 82 9e 90 3d fd 27 66 3d e7 af 27 bd 57 30 d8 3d
       0.07061483 0.05619048 -0.040939238 0.10556095
000010 e2 08 7c 3d 16 db 6d 3d 64 ae f4 bd 20 a7 26 bd
       0.06153191 0.058070265 -0.11947325 -0.040686727
000020 9f a5 28 bd 5f 16 a9 3d 3b 54 b8 bc 72 20 c7 3d
       -0.041173574 0.0825622 -0.022501102 0.09722985
000030 14 97 d8 bd 9b 34 7d 3d 8e 55 38 bc fc 59 c6 ba
       -0.10575691 0.061817747 -0.011250867 -0.0015133019
000040 d6 7a f6 bd 04 15 38 3d 81 44 bd bc 2b ef d8 bd
       -0.12035148 0.044941917 -0.023103954 -0.10592493
000050 e4 4d 90 bd 51 63 f5 bc 12 5c 93 3d c4 1d ae bd
       -0.070461065 -0.029954584 0.071952954 -0.08501771
000060 3e 28 ca bd 68 88 ac 3d ea 3e 97 3d 33 ac 45 bd
       -0.09870957 0.08424455 0.07385047 -0.048259925
000070 c3 4a 6a bd 1f a4 dc 3d 9e 19 4c bd d6 8e 86 3d
       -0.057200205 0.10773491 -0.049829118 0.065702125
000080 7b 80 cd 3d d7 98 59 bd 0d 26 5f 3d 96 a2 ad 3d
       0.10034271 -0.053124275 0.054479647 0.084782764
000090 e3 5b 9a bd 6e 24 01 bd bc 11 6d bd b2 28 e0 3d
       -0.07537057 -0.031528883 -0.05787824 0.10945262
0000a0 77 45 0a bc b3 e8 d6 bd d4 a2 df bd 83 14 f4 b9
       -0.008439413 -0.104936026 -0.10919729 -0.0004655459
0000b0 3f 47 02 be 85 19 e4 bd 1a 44 a4 3d eb e4 01 bd
       -0.1272249 -0.1113768 0.08020802 -0.031712454
0000c0 fe 54 5e bd ec 37 a1 3d 30 b4 49 3d fc 8b 02 bd
       -0.054280274 0.078719944 0.049244106 -0.03187178
0000d0 32 d7 c3 bc e5 19 ab 3d 1d 6e 9c 3c 41 a6 8e 3c
       -0.023906324 0.08354548 0.019095475 0.01741326
0000e0 db a2 e6 bb e8 37 4f bc 59 13 c0 3d 2e d1 c2 bd
       -0.007038457 -0.012647606 0.0937869 -0.09512554
0000f0 db 9a 33 3c 9d 3a 2a b9 1e 1c a9 bd 2d 5f d2 3d
       0.010962213 -0.00016234299 -0.08257316 0.102720596
000100 e1 9a 93 bd a6 9e ed bd 74 3e 1a bd 60 c2 85 bd
       -0.07207275 -0.116025254 -0.037657216 -0.06531215
000110 eb 6f ee bd 66 de d9 bd 8f d7 98 3d 9c 8f 32 3c
       -0.116424404 -0.10638122 0.074629895 0.010898497
000120 15 1c cf 3d 4a 8f de 3d 53 56 2d 39 3f 27 01 bc
       0.10112778 0.10867174 0.00016530724 -0.007882892
000130 ab bb a0 3d 66 6d 38 bd b0 f9 67 bd bd b0 80 3d
       0.07848295 -0.045026205 -0.056634605 0.0628371
000140 a6 8b 60 bd e5 78 d6 3c c3 0b c3 3d ea 58 18 bd
       -0.05482068 0.026180694 0.09523728 -0.03719417
000150 84 95 1a 3d 2c 39 31 3b 9f 9b 83 3d 7a f8 5f 3c
       0.037740245 0.0027042134 0.06426167 0.013670081
000160 79 d7 2d 3d 47 e4 b2 3d 0e 94 93 3c a2 64 b3 bd
       0.04244182 0.08734947 0.018014934 -0.087594286
000170 73 10 03 be 1e 9c 0b 3c df c2 d0 3d 31 bf 15 3d
       -0.12799244 0.008521108 0.10193419 0.036559287
000180 a5 1e 69 3d 0a bb c7 bd 3c b8 86 3d 5a 20 30 3d
       0.05691399 -0.09752472 0.06578109 0.042999603
000190 77 6f 81 bd 68 ab 97 bd 0e 4d c3 bd 25 73 1a bd
       -0.06320088 -0.0740574 -0.095361814 -0.037707467
0001a0 09 86 11 bd 29 5d 1e bd 3b 50 c5 3d 89 2b ba bd
       -0.035528217 -0.038663063 0.09634443 -0.09090335
0001b0 1b 93 01 3e 43 3f c6 bc 85 26 7f 3d e4 ce bb bd
       0.12653773 -0.024200087 0.062292594 -0.09170321
0001c0 da 4a 96 bc 47 96 ed 3c f7 67 8f 3d 72 00 74 3d
       -0.018346239 0.029002322 0.070022516 0.059570737
0001d0 de ae 93 3d b8 dd 8e bd 30 51 10 3d 38 a0 d9 3d
       0.07211088 -0.06975883 0.035233676 0.106262624
0001e0 d5 95 ae 3d 3f 1d 09 3d cd 37 25 bd 6f f4 71 bc
       0.08524672 0.033475157 -0.04033642 -0.01476775
0001f0 30 df 31 3c 23 10 95 bc 73 4b 12 3b ad 78 b7 3c
       0.010856435 -0.018196171 0.0022322803 0.02239641
000200 d2 2e 38 3d a6 ec 50 3a 78 3c 95 3d ba aa 14 bd
       0.044966526 0.00079698337 0.07286924 -0.03629563
000210 b1 56 54 bd 97 17 c3 3d 4d 4d e6 3c cc a2 45 bd
       -0.051840488 0.09525984 0.028113032 -0.04825096
000220 2d ff e4 3d 64 51 0a 3d 76 11 a8 3c bd 4e 26 3c
       0.111814834 0.033769026 0.020516139 0.010150609
000230 e9 c5 86 3d 86 2c 03 3e 97 06 11 bd a7 40 64 bc
       0.06580717 0.12809953 -0.035406675 -0.01393143
000240 6c 3b 24 3d 15 7e 5d 3a 72 cf 85 3c 15 c0 9e bd
       0.04009573 0.00084492686 0.01633427 -0.077514805
000250 f7 36 a1 bd 01 45 09 3c 8b 55 3a bd 63 89 dd 3d
       -0.07871812 0.008378268 -0.045491736 0.1081722
000260 d8 65 ac 3d 85 22 09 3d 66 c4 cf 3d c8 44 99 3d
       0.08417863 0.033480186 0.10144882 0.07483822
000270 ba 94 4e 3d 12 f0 e8 3c bd 82 72 bd e2 f4 55 bc
       0.050434805 0.028434787 -0.059206713 -0.013058873
000280 d0 45 e9 3d 27 e2 8d 3d 19 1e e8 bc 0b 74 dd bd
       0.11390269 0.06927901 -0.028334664 -0.10813149
000290 eb fb b6 3d 72 ca e5 3c 78 d3 91 bd ec 47 33 3d
       0.08934768 0.028050635 -0.071204126 0.043769762
0002a0 b7 bd b6 3b 8d 0c bd 3d 1f 85 3b bd c6 c8 bd 3d
       0.005576815 0.092309095 -0.04578125 0.0926681
0002b0 5d 9f 04 bc c5 e7 9e bd 7d 1b 9a bd 9d 35 e0 3d
       -0.008094636 -0.0775905 -0.07524774 0.10947726
0002c0 9b 72 15 3d 41 52 83 3d 36 3d a1 bd 94 8d a6 bd
       0.03648625 0.06412173 -0.07873003 -0.08132473
0002d0 ad 22 e8 3d 32 f1 5b bd 00 3e 55 3c 99 ea b7 3d
       0.11334739 -0.05369682 0.01301527 0.08980293
0002e0 a3 55 d5 3b 7e 17 df 3d 86 7b e9 3d 6f c8 d9 bc
       0.006510453 0.10893153 0.11400513 -0.026584832
0002f0 02 d5 6a bd b2 aa d2 bd 37 14 01 bd 6f 22 9b 3d
       -0.057332046 -0.10286464 -0.03151342 0.07574927
000300 de 71 ce 3d d3 6b fd 3d d8 c4 80 3d 31 ef a0 bc
       0.10080312 0.123740815 0.06287545 -0.019645305
000310 24 59 fc 3d a1 24 95 3d 6f e2 e9 3b 1a a2 95 bd
       0.1232169 0.07282377 0.0071375887 -0.07306309

fc.bias f4 [2]
000000 28 ee 9e 3d 47 30 9e 3d
       0.077602684 0.07724052
